trained_models/base/airl_CV0_size10000.pt (torch, 282690 bytes, 29 tensors)

conv1.weight f4 [20, 22, 3, 3]
00000000: e7b1 053e a765 32bd 28af 09be 96e1 ffbd
00000010: 5ed4 9ebd 73d7 783e 82e4 fdbc 5d07 573e
00000020: f19b 5dbd b1f2 d73d dc01 e83c 7f78 c4bd
00000030: 6769 6ebd 0e4e cb3c e17f 093e 9a88 31bc
00000040: 8f52 4e3e 1d3b b2bd b3b1 c73d 36da 403d
00000050: d283 afbd 62d3 73bd c948 363d 4c5e f73c
00000060: 36d0 f43b 18d2 e13d f124 a63d e5d8 c13d
00000070: 4500 39bd 4afe 393d 0952 833d 33e4 723d
00000080: 86bf 403e 9c73 02bd db91 c3bd fd20 cfbc
00000090: c973 b23d 0213 e3bc 0907 363c d174 74bc
000000a0: 14d0 c13d 6996 683c 8c9c 963d e01a 003d
000000b0: 1400 0abc bc11 483d e80b 56bd af5a 923c
000000c0: eae2 3abd b2f7 bcbc 9b8f 5ebd 88a9 41bc
000000d0: 3492 babb b29b 1f3b 494e 143e 75a7 653d
000000e0: 0a4b efbc 0610 dfbd b423 9c3d 1b1f 493e
000000f0: b7c8 2abd 2b04 eb3d c02f 54bc e808 e83d
00000100: 31f7 3bbd 1a1a c8bb d9d1 f63b 904c 863c
00000110: 4c43 79bd 1214 65bc d731 69bb 100d d43c
00000120: b470 b33d 135d 55bc e1b2 f93b 9508 683c
00000130: 38d1 a23b e100 3b3d eb06 69bd db50 e23c
00000140: 0b42 a33c ef83 cbbc 00dd 4a3b 43fa 71bb
00000150: 123d 1d3d 0fb3 12bd c37c 74bd 0cd1 8f3d
00000160: 5ef3 9fbc 88df bf3d 289f 613d 4dfd 26bd
00000170: d296 1ebd a6fe 5fbd 9532 3dbd 2a6c bebc
00000180: eeb0 bf3c 0108 c13d 4e07 033d c7e5 cebb
00000190: bc26 bebc 7910 c4bd 75d5 60bd ff3c c4bc
000001a0: 7ee5 d13d f287 86bd 87ee e33d 32d4 833d
000001b0: a350 a33c 55b1 823c 2490 6c3c 5c28 673d
000001c0: c122 7e3d ce72 4fbd f890 1dbc 1e0a 7e3d
000001d0: 334d 12bb 7239 73ba a073 57bc 9d96 8fbd
000001e0: e5f8 7abc 5fba 0ebc 5b4a 903d fc38 afbc
000001f0: 88d1 71bd 8aff f13c c9cf a3bd 98fa c6bd
00000200: d744 97bc b455 a23d a3ba d0bd bd78 863d
00000210: 56b2 a73d 7769 2c3e df20 913d acf5 b13d
00000220: 3694 f23d 1ccf 393c 9aa4 34bd 1d29 e8bd
00000230: 4ea4 79bd 3126 423d 1017 12bd e049 9b3d
00000240: 6774 403d faa0 19bc fe1e 6b3d 520b a43d
00000250: 16aa b03d fd16 153d 9d2d d7bc 3f90 0a3c
00000260: b839 653c 1f37 96bc c983 a9bd e718 20bc
00000270: 2d99 91bd ad42 b1ba 84de f23d 51e0 d7bc
00000280: faa7 88bd 32a5 523d e411 533d 5683 373d
00000290: d64c e8bc d48b 453c ea2d a8bc 5674 4cbc
000002a0: 7630 1cbd 887a 29bd fade 023d 4b5a ad3d
000002b0: 59f4 e63c efe9 2f3d ac3d 783c ca4f 003e
000002c0: 7823 97bc 5bdc 11bc 5099 06be 70b5 c03d
000002d0: 3f49 493d 123f 35bd 906c 09bd 106c 55bc
000002e0: 7d98 b2bd 57aa 48bb f337 22bd 69c4 bcbd
000002f0: c0da 7b3d 8587 64bd 1351 433d 372c 6abd
00000300: 19a1 dd3c d9b1 51bd 2200 ff3d 4f18 42bd
00000310: f630 b23c b44b c53a fc76 eb3d 83ef 3dbe
00000320: ec0f ca3d 060b 933c 9dd5 293d 3487 403d
00000330: 2d1a 933d ef51 8bbd 8c39 9bbd a662 6a3d
00000340: 74c9 88bd d24d fc3d 9c75 d43d 8b45 723d
00000350: 6afe 163b e853 ab3d 0d2e bf3d e63d 583d
00000360: 2089 aa3d 72f8 bfbc 38ac e3bc bb08 1d3e
00000370: 4566 39bd ccff 9d3d f0db f3bc 36b4 51bd
00000380: 2707 91bb 63a2 40bd a9b9 e5bc 62fd 2c3e
00000390: 9260 d63d 84f4 863c 79dd 9bbc a2c9 3ebd
000003a0: f6c0 eb3d 0a4b f4bc f283 8abc ad5b b23c
000003b0: a6f3 a0bc b956 aa3d 1604 793c 33b9 aebd
000003c0: 8666 91bd 72b1 ecba 8eb3 013d 7633 febb
000003d0: 2f48 58bd e102 7b3c e909 2abd b6a3 a9bd
000003e0: 6284 9ebd 534d c73d 9faa c13d fda0 5ebc
000003f0: 84fc 7d3d 69b4 f1bc 566d ce3d cd72 de3c
0.13056146 -0.043553974 -0.13445723 -0.12494199 -0.077553496 0.24300937 -0.03099275 0.20998903
-0.054103795 0.105443366 0.0283212 -0.09593295 -0.05820599 0.024817493 0.13427688 -0.010835791
0.20148681 -0.08702681 0.0975069 0.047083102 -0.085700646 -0.059527762 0.044503007 0.030196331
0.0074711097 0.110264 0.08112515 0.094651975 -0.045166273 0.045408525 0.06412131 0.05929966
0.1882306 -0.031848535 -0.09549304 -0.025284285 0.087134905 -0.027719025 0.011110076 -0.014920429
0.09463516 0.014196017 0.07354078 0.03127563 -0.00842287 0.048845038 -0.05225745 0.017865507
-0.04562656 -0.02306733 -0.05433617 -0.011820205 -0.0056936983 0.0024354276 0.14482988 0.056067903
-0.029210586 -0.10891728 0.07623997 0.19640772 -0.041695323 0.11475404 -0.012950838 0.11329824
-0.045890037 -0.006106627 0.00753234 0.01639393 -0.060855195 -0.013981836 -0.0035582685 0.025885135
0.08761731 -0.013022679 0.007620201 0.014162202 0.0049687885 0.045655135 -0.056891363 0.027626446
0.019928953 -0.024843184 0.003095448 -0.003692285 0.03838832 -0.035815295 -0.059689295 0.070222944
-0.019525226 0.09368807 0.055083424 -0.04076891 -0.038718052 -0.05468621 -0.046190817 -0.023244936
0.023399796 0.09425355 0.03198939 -0.0063140127 -0.02321183 -0.095734544 -0.05489107 -0.023954866
0.1024885 -0.06568898 0.1112948 0.064369574 0.019935912 0.0159537 0.014438663 0.056434974
0.062044863 -0.050646596 -0.009617083 0.062021367 -0.0022323846 -0.00092782744 -0.013150126 -0.07011149
-0.01531813 -0.0087114265 0.07045432 -0.021389477 -0.059037715 0.029540796 -0.07998616 -0.09715766
-0.018465443 0.07926503 -0.10191848 0.06565998 0.08188312 0.16837107 0.07086348 0.08689436
0.11844675 0.011340883 -0.04410229 -0.11335967 -0.06094771 0.047399703 -0.035666525 0.0758245
0.04698601 -0.009376759 0.057402603 0.08009972 0.08626191 0.036398876 -0.026266867 0.0084572425
0.013990812 -0.01833683 -0.08277089 -0.009771562 -0.07109294 -0.0013523899 0.11858848 -0.02635208
-0.06672664 0.051427074 0.051530734 0.044802986 -0.02835695 0.012057263 -0.020529706 -0.0124789085
-0.038132153 -0.04137662 0.03195093 0.08464488 0.028192686 0.042947706 0.0151514225 0.12530437
-0.01844953 -0.0089026345 -0.13144422 0.094096065 0.04914212 -0.0442496 -0.0335508 -0.013026252
-0.08720491 -0.0030619109 -0.03960414 -0.0921715 0.061487913 -0.055793304 0.04768474 -0.057171073
0.027054356 -0.051195 0.12451197 -0.047386464 0.021751862 0.0015052469 0.11497304 -0.18548398
0.09866318 0.017949592 0.041463483 0.04700394 0.07182727 -0.06802737 -0.075793356 0.057222985
-0.06679049 0.123195305 0.10373995 0.059148353 0.0023039826 0.08365613 0.09334955 0.052793406
0.08326936 -0.023433898 -0.027792081 0.15335362 -0.045263547 0.07714805 -0.02976796 -0.051197253
-0.0044259015 -0.047029864 -0.028042631 0.16893533 0.10467638 0.016474016 -0.019026505 -0.04657901
0.11511414 -0.029820938 -0.01690862 0.02177223 -0.01964743 0.08317322 0.015198728 -0.08531418
-0.07099633 -0.0018058254 0.031665377 -0.0077575995 -0.052803215 0.015320511 -0.041513357 -0.082831785
-0.07740094 0.09731545 0.094563715 -0.013588187 0.062008396 -0.029504972 0.10079448 0.02715435

conv1.bias f4 [20]
00000000: 47da c5bb d773 753c 052b 263d 6af1 05bd
00000010: c9e0 73bd c07b f03c 7ced e73a 7443 d4bd
00000020: 882f a0bc 202f 40bc 6801 12bd c045 cdbd
00000030: aee0 d6bd f72b 4abd 15ec 04bd 441b b83c
00000040: 51a8 cbbd 25ab 92bc 1bec 3ebd 3e4d 373d
-0.0060379836 0.014981232 0.04056837 -0.032700934 -0.059540544 0.029355884 0.0017694677 -0.10364428
-0.019553915 -0.0117299855 -0.035645872 -0.100230694 -0.10492073 -0.049358334 -0.032451708 0.022473939
-0.09944213 -0.017903874 -0.046611886 0.0447514

conv2.weight f4 [30, 20, 2, 2]
00000000: fa34 cebd 419f a53c 565b 5b3d 4a13 42bd
00000010: 511c 7d3d 928c 4a3b 0591 ae3c ac83 81bd
00000020: edf8 c73d 00c2 573d f170 e73b 3cb4 dfbc
00000030: 2f82 1dbe 10d4 bbbc a574 67bd 1bd0 83bd
00000040: 381b 953b dd21 8e3d d383 02bd bb7b 3fbd
00000050: 3177 863c 4987 e8bd 1e2a babd 1f9f 1fbd
00000060: ddb2 b33d f9f2 9bbd 5616 cb3c 3da3 68bc
00000070: 0ba3 0c3d 70ba b8bd b569 56bd 827b 6c3d
00000080: 496b 4dbd 9834 e03d b539 c5bd 4f0e b2bb
00000090: 7972 98bb 2280 ddbd 6cad e4bd bace 0cbe
000000a0: 7d67 aabd 7b08 233e 84fc c23c 640d 033b
000000b0: 18a7 7fbc 9726 8ebd e2c5 2fbe dc90 9dbc
000000c0: e29f a2bd 5beb 1dbd a48c 8e3d a6de 8f3d
000000d0: 2eef 07bd f140 8abc 0207 bebd 08c8 25be
000000e0: 5dc6 323d 03a8 013e a7f7 953d 8e46 89bc
000000f0: 46dc f43b e8e6 9a3d 937d 193e b7a1 983d
00000100: 5a94 ff3d e4eb a0bd 4964 963c 96ff 36bd
00000110: ad60 68bb c587 263e 3ab8 02be c1c2 033e
00000120: e45e 3d3d 3f3e 8c3c 6c28 21bd e870 ba3d
00000130: 5ada a63c fe9d 08be e150 e93c 9b35 2dbe
00000140: 100f 163d c24a 20bd 3ce5 b03c fff1 0cbd
00000150: b599 0abe ee59 223d 8a76 d8bd 720a 6abd
00000160: cf3b 01bd 25d2 e9ba af6e 63bd 4af7 0b3e
00000170: ef79 643d f4a6 d9bd f945 183d 031a 113d
00000180: f2ed 7d3b 41af 4c3b 81c2 51bd fbfa eabd
00000190: 2528 5e3c 71e0 943d 759d fabd 9dc9 e83d
000001a0: 8601 7e3d c654 943d b7a2 913d f811 4b3d
000001b0: 2d09 2a3d aacd bebd 4f5f cdbd 7e6f 27be
000001c0: 0981 c7bc 6ff5 1d3c dd2c 6e3c c793 97bd
000001d0: b689 af3d dc93 73bd 530a 19be 334d f33d
000001e0: e9c7 bebc aae5 cb3d 789a d8bb f87a d13d
000001f0: 5ae8 ba3c a368 513d 155d ffbc b971 e13d
00000200: 5b3c 84bd d2ef 91bc 9b6d 5d3d 06f2 b43d
00000210: 3d0b e3bd befc b5bd aac5 8b3d fb7e 7d3d
00000220: e4ea 40bd c22c 73bd 17bb 6f3d 2f89 e03d
00000230: 61c6 04be b643 923d 9701 dc3c bc33 b0bb
00000240: 5d56 053e aea5 b0bd 69c7 9f3d 0b0d 873b
00000250: e644 c2bd 0eae 6c3d 23e2 8fbd 9b98 aa3d
00000260: 5929 1cbe 4523 61bd 2a55 8cbd 48d4 133d
00000270: 60d3 543c 02e9 3f3d 8649 1f3c 5b61 02be
00000280: 805c 64bd c503 7ebd f791 843d c1ed 863d
00000290: cbcd 4bbe 7b86 e4bd b1d4 c3bd b0e7 9cbd
000002a0: 6668 2e3b ed0b 66bd 2689 3a3d ce2c 46bc
000002b0: 5739 eabd c59d cf3b 17ce f83c 4423 29bd
000002c0: 8d38 7bbc a99c d8bc 4eb2 05be 045b f03d
000002d0: f478 07be ba95 3abd 62a6 c23b f3b3 273d
000002e0: aeb2 3bbc 1372 c5bc f0a2 fdbd 41c0 00be
000002f0: 44e1 6e3d c23c 20be 51d6 29bc 566d cb3d
00000300: 8638 d73d a939 cf3d 7a5c 5cbd 7608 8a3b
00000310: e271 ae3d f966 8cbd 1827 533c a12c ee3c
00000320: 10a4 ca3d 28e7 22bd 548b 1e3d 8f36 db3d
00000330: 82c9 443e 9220 f33d 8925 8c3b c2e1 023e
00000340: d444 dcbd 6f65 39bc 7ff0 6b3c 863b e1bc
00000350: 5da0 243e 7693 99bd 93b2 13bd 6c72 c83d
00000360: 7db6 4ebc 0fd4 bd3c e179 013d 6f74 e33d
00000370: e9d7 8a3c f8a9 0d3d 1baf 10bd 612a 8c3d
00000380: 81e1 3fbd e08a a43d 2cf4 4a3d 716b d7bc
00000390: 2838 61bd e3b9 1e3d 0b1c 833c 82ad a9bd
000003a0: 08af a13d b8cd 09be f401 5b3e db73 da3d
000003b0: 6cde 24bc 7d72 86bc b9b4 bebd 2ed1 fbbd
000003c0: d0f1 883a 52a7 0bbd 1d8b 30bb 5e9c 8bbd
000003d0: 8a67 6bbd bb02 813d 2f5b 8dbd 0cbd 93bc
000003e0: 324f 743d 11a6 833d 0568 15bd 9e0d 21be
000003f0: e92c d03d 5b61 4d3e 20d5 d6bc 9a3f 2b3e
-0.10068698 0.02021754 0.0535539 -0.047381677 0.061794583 0.003090654 0.021309385 -0.063239425
0.09764276 0.052675247 0.007063024 -0.027307622 -0.15381692 -0.022928268 -0.056507725 -0.06436177
0.004550364 0.06940053 -0.031864 -0.046748858 0.016414257 -0.113539286 -0.090900645 -0.03897011
0.0877435 -0.07614703 0.024790924 -0.014199075 0.034335177 -0.09019935 -0.052346904 0.057734974
-0.050151143 0.109475315 -0.09630147 -0.0054338346 -0.004652318 -0.10815455 -0.1116589 -0.13750735
-0.0832052 0.15921204 0.02380205 0.0019996995 -0.015603803 -0.06940954 -0.1716533 -0.019234113
-0.079406515 -0.03855453 0.06960419 0.07024889 -0.033187084 -0.01687667 -0.092786804 -0.16189587
0.043646205 0.12661748 0.073226266 -0.016757276 0.0074725477 0.07563573 0.14989309 0.0745272
0.12479468 -0.078574926 0.018358367 -0.04467734 -0.0035458014 0.1626273 -0.1276559 0.12867261
0.046233073 0.017119525 -0.03934519 0.091035664 0.02036779 -0.13341519 0.028480949 -0.1691498
0.03663546 -0.039133795 0.021593682 -0.034410473 -0.13535197 0.039636545 -0.105694845 -0.057138868
-0.03155118 -0.0017839117 -0.055525478 0.13668552 0.055780347 -0.10627547 0.037176106 0.035425197
0.0038746563 0.003123239 -0.051210884 -0.11473652 0.013559376 0.07269371 -0.12237064 0.1136658
0.06201317 0.07242732 0.071111135 0.049577683 0.041512657 -0.09316571 -0.10027944 -0.16351125
-0.024353521 0.009641035 0.014537063 -0.07401233 0.08571188 -0.05946718 -0.14945345 0.11879959
-0.023288684 0.09955914 -0.006610211 0.102285326 0.022815872 0.05112518 -0.031172315 0.11008019
-0.064568244 -0.01781455 0.054059606 0.08835225 -0.11086128 -0.08886097 0.06824811 0.061888676
-0.04709901 -0.059368856 0.058528032 0.10963666 -0.129663 0.07141821 0.026856227 -0.005377261
0.13021226 -0.08625351 0.07801706 0.004121428 -0.094857976 0.05778318 -0.07025554 0.083298884
-0.15250148 -0.054965276 -0.06852181 0.03609112 0.012989849 0.046853073 0.009722119 -0.1273245
-0.055752277 -0.062015314 0.06473153 0.06588317 -0.19902723 -0.111584626 -0.09562052 -0.076613784
0.002661252 -0.056163717 0.04554095 -0.012095643 -0.11436718 0.0063359463 0.030371709 -0.041293398
-0.015333307 -0.026441889 -0.13056299 0.1173611 -0.13229734 -0.045552947 0.0059402445 0.040943097
-0.011456175 -0.024102246 -0.123845935 -0.12573339 0.0583203 -0.15648177 -0.010366038 0.099329636
0.10508828 0.1011842 -0.05379913 0.0042124344 0.08517815 -0.06855578 0.012887739 0.029074015
0.09894574 -0.03977123 0.038707092 0.107037656 0.19217494 0.11871447 0.0042769355 0.12781432
-0.107553154 -0.011315688 0.0144006 -0.027494203 0.16076799 -0.07498829 -0.036058974 0.09787449
-0.012616751 0.023172406 0.031610373 0.11106192 0.016948657 0.034585923 -0.035323244 0.06844021
-0.046845917 0.08034301 0.049549267 -0.02629635 -0.054985195 0.038751494 0.016004583 -0.08285047
0.07894713 -0.13457382 0.21387464 0.10666629 -0.010062795 -0.016412014 -0.09311814 -0.12295757
0.0010448042 -0.034095116 -0.0026938387 -0.06816934 -0.05747179 0.06299349 -0.069021575 -0.01803448
0.05964584 0.06428159 -0.036476154 -0.15727851 0.10164816 0.2005667 -0.026224673 0.16723481

conv2.bias f4 [30]
00000000: 7f7f 8abd e653 6d3d 9478 50bd fab7 e83d
00000010: 48d4 babc b567 c63d d34f 71bd fbeb 2dbd
00000020: d048 d03d 99f3 41bd 431e 56bd 70c0 0e3d
00000030: 38e9 89bd 8f3b 753d 1c03 2ebd 34b1 c83d
00000040: 26e0 643d 45a8 9c3d abe0 05bd 1500 36bc
00000050: e86f 8cbb cef5 aa3c ad0c 13be 5406 623d
00000060: e158 003e e1af 24bd 6086 793d 9339 a93d
00000070: c190 3c3d 5946 263d
-0.06762599 0.05794134 -0.050896242 0.11363216 -0.022806302 0.09687749 -0.058914017 -0.042461377
0.10170138 -0.047351453 -0.052274954 0.03485149 -0.06733936 0.059871253 -0.042483434 0.09799424
0.055877827 0.07649282 -0.032684963 -0.011108418 -0.004285801 0.020869162 -0.14360304 0.055181816
0.12533905 -0.040206794 0.060919166 0.082629345 0.046036486 0.040594433

fc1.weight f4 [120, 30]
00000000: 5a70 ea3d 5edd a93d 2afb bebd 6f32 303e
00000010: a398 8abe 9091 91bd 6b80 65be e8c6 af3d
00000020: b860 393e 054a 833e a1ac 61be d0fd 063e
00000030: 3a5a 26be f36c 18bd 52b3 87bd 4910 00be
00000040: e057 28bc f273 083e c8b2 983c caca 30be
00000050: 42d5 7c3d b550 00be 2e47 52bc 21bb 2c3e
00000060: 92f1 c6bc a265 d33d 1446 52be 3c59 063c
00000070: d66c 4b3d 04d1 1cbe a6ad 293e 957f 1b3d
00000080: 1342 473c 3516 62be c89f 15be 812e 103e
00000090: 125a fb3d 4e3e fc3d b561 40bd 8431 03be
000000a0: 1520 4d3e 58df c8bd 48fe 3a3d 4d67 023d
000000b0: 245d a13d 7018 333e cad9 533c d7b6 debd
000000c0: a295 26bd bd4d b63c 3a13 13bd 1a06 ae3d
000000d0: 4c2e 143e eab9 07be c3e2 06bd 5d7b 18be
000000e0: 857a dcbd ad79 9fbe 06c0 40bd 5e23 34bd
000000f0: c012 16be 2948 12be 9ca8 333e 59f2 a13d
00000100: 33d8 b1bd b25b 3bbe 0345 0a3d c679 a03d
00000110: 7dbd 23bd 8427 4b3d 9262 3abd 6964 743d
00000120: b51a c9bd b78a 68bd 8b4b de3a b8b3 72bd
00000130: bdea 643e 8249 12bd 0904 263e c3b1 b33d
00000140: 6332 94bc 445e 373e f463 b13d ed8e e1bd
00000150: cb64 0bbb fb7c 4bbe bc85 233d 80b3 3f3c
00000160: 6d11 4a3e b32f b0bd 645f 67be 2e61 c9bd
00000170: 5309 b1bd db54 753d d289 edbb cae6 7c3e
00000180: ca7e b5bd 71b0 2f3c a00c 03be 46db 0f3e
00000190: 5b16 8c3d 71e9 1abe 0ffe 213d bbb0 173e
000001a0: 3ad5 6b3e 1f07 a8bd 9413 84bc 4e2a ac3d
000001b0: 17cd 1abe b90b 36be e641 053e f031 2bbe
000001c0: b144 453d 8354 11bd 10dc 983d 436a b13d
000001d0: 6f94 afbd 626d 453c a5a0 54bd c9cc 05be
000001e0: c0ab 803c 0a53 fe3d 358b 7c3e 6031 9bbd
000001f0: 0567 463e 8cca 043e e1da e63d fbb8 55bd
00000200: 9cb0 1dbe 1367 9b3d 5d9d b33b 97cf 03be
00000210: 2e65 013e 2c49 08be c07d 063d 437d 003c
00000220: 2f56 f63d 354a 993d 8b34 9abd 4e40 a63a
00000230: f0a9 7dbd 31a6 363e fb55 c13d 2f82 343e
00000240: 2e16 16bc c851 03be 06e0 72bd 4b24 62bd
00000250: e954 283e 8d8e 98bd 3eb3 5f3e d09c 733d
00000260: 9da7 393e c167 ce3c ec00 c6bd df91 e63d
00000270: ed41 a7bd d8b7 37be d9f1 963d dd5b 5abe
00000280: 4957 193e 1853 4c3d 3985 97bd 8168 5c3c
00000290: 2894 d53c a1cf d4bd a4a7 54be 53b1 213e
000002a0: 81bc 9bba 6a93 103e 36b0 7c3d 4a0b f23d
000002b0: a27c 893c 170f bbbd 92cd 223e b30b ebbd
000002c0: 83be bc3d 4ae8 8ebd 8824 123e a409 603d
000002d0: bca3 3cbd 558e 103e 96b7 143e f6e4 27be
000002e0: bb44 cb3d 02bb 46bd 6eb5 7dbd bac0 343e
000002f0: 18f0 1e3e 9cbb d43c 5133 2ebe 2504 20bb
00000300: ca77 c73d 8319 9abd c706 86be 6c99 433e
00000310: 2320 773c 60ff 63bd d4eb 35be 8ab8 af3d
00000320: 1fca cbbc 6011 ab3d dae8 bc3d f7ff 1cbd
00000330: 184d 57be 1990 63be 315b 743d 973f 36bd
00000340: 6c42 28be ae63 80bd cbfd 0c3e 406b c3bd
00000350: 0508 a2ba 0d87 83bd 7e18 773c 3de6 81bd
00000360: a221 7b3d 4f52 c7bd 03c8 213e 4b03 81bd
00000370: a174 1fbe 9e27 b83d 89a4 e23c 1453 3abe
00000380: 87ca debd ddc8 5e3e 0dcf 80bc dcb7 953d
00000390: 46e8 1f3e c398 1e3d 9687 af3d 2cc4 04be
000003a0: 95cd d6bd 0a81 a4bd 4bba b8bb ab87 efbc
000003b0: 4ee0 c23d 83f0 92be e57f 133e c7ae 783e
000003c0: 18d8 ef3d 8c29 0b3e 26de 413e a7b9 b9bb
000003d0: 5750 a4bd d5d3 b2bd 9c22 f53d 817b 383d
000003e0: 9b1a ad3b 473b 08be 999f 383d 5ba5 b2bd
000003f0: 5b74 26be 05e8 d1bd 1a89 4dbc d607 05be
0.114472106 0.082941756 -0.093252495 0.17206739 -0.27069578 -0.07107842 -0.22412269 0.0858286
0.18103302 0.2564241 -0.22038509 0.1318276 -0.16245356 -0.037213277 -0.066259995 -0.12506212
-0.010274857 0.1332548 0.018639937 -0.17264858 0.061726816 -0.12530787 -0.012834353 0.16868259
-0.024285112 0.10322119 -0.20534545 0.008199986 0.04966434 -0.15314108 0.16570148 0.03796347
0.012161749 -0.22078784 -0.14611733 0.1408024 0.12273039 0.12316571 -0.04696818 -0.12811857
0.2003177 -0.098082244 0.045652658 0.031836797 0.07879093 0.17489791 0.012930343 -0.10874718
-0.040670045 0.022253865 -0.035907008 0.084972575 0.14470786 -0.13254514 -0.0329311 -0.1489081
-0.10765556 -0.3114752 -0.047058128 -0.04397904 -0.1465559 -0.1428534 0.17544788 0.07907552
-0.08683815 -0.18296698 0.03375722 0.078357264 -0.039975632 0.049598232 -0.04550416 0.05966607
-0.09819547 -0.056772914 0.001695977 -0.059253424 0.2235517 -0.035714634 0.16212477 0.0877414
-0.018090433 0.17907053 0.08661643 -0.11013589 -0.0021269794 -0.19871895 0.03992246 0.011700511
0.1973321 -0.08602848 -0.22594982 -0.09832989 -0.086443566 0.059895378 -0.0072490955 0.24697414
-0.08862074 0.010723219 -0.12797785 0.1404849 0.068402015 -0.15128113 0.03954893 0.14813511
0.23030558 -0.08204483 -0.016122617 0.084065065 -0.15117298 -0.1777791 0.1301342 -0.16718268
0.048161212 -0.035480987 0.074638486 0.08662846 -0.08573233 0.012050005 -0.051911015 -0.130664
0.015706897 0.12418182 0.24662478 -0.07577777 0.19375236 0.1296789 0.112722166 -0.052178364
-0.15399402 0.07588019 0.0054814056 -0.12872158 0.12636253 -0.13309163 0.03283477 0.007842365
0.12028157 0.07484857 -0.07529553 0.0012683959 -0.061929643 0.17836834 0.094402276 0.17627786
-0.0091605615 -0.12824166 -0.059295677 -0.055210393 0.1643864 -0.074490644 0.21845719 0.05947572
0.18130346 0.025195958 -0.096681446 0.112582915 -0.08166871 -0.17941225 0.073703475 -0.21324106
0.14974703 0.049883932 -0.07398457 0.01345265 0.026071623 -0.103911646 -0.20767075 0.157903
-0.001188174 0.14118734 0.061691485 0.118185595 0.016783062 -0.091337375 0.15898731 -0.11476841
0.09216025 -0.069778994 0.14271748 0.054696694 -0.046054587 0.14116795 0.14523157 -0.16395935
0.09925219 -0.04851819 -0.061940603 0.17651644 0.15521276 0.025968365 -0.17011763 -0.0024416533
0.09739645 -0.07524397 -0.26177046 0.19101495 0.015083346 -0.055663466 -0.17765743 0.0858012
-0.024876652 0.083529234 0.092241004 -0.038330045 -0.21025503 -0.22222938 0.05965728 -0.044494238
-0.16431588 -0.062690124 0.1376869 -0.09541941 -0.0012362009 -0.06422243 0.015081523 -0.063427426
0.06131137 -0.09732496 0.15798955 -0.06299456 -0.15571834 0.089919314 0.027666347 -0.18195754
-0.10878473 0.21756311 -0.01572373 0.07310459 0.15615949 0.038719904 0.08570783 -0.12965459
-0.104884304 -0.08032425 -0.005637442 -0.029239496 0.09515439 -0.2869912 0.14404257 0.24285422
0.117111385 0.13590068 0.18932399 -0.0056678834 -0.08023136 -0.0873181 0.11969492 0.045039658
0.0052827126 -0.13303863 0.04507408 -0.08722945 -0.16255324 -0.10249332 -0.012544895 -0.1299127

fc1.bias f4 [120]
00000000: 50dc 83bd 4e99 cd3d d775 79bd 75be 14be
00000010: ffec e6bd c2c1 463d d31a eb3d e05c 13be
00000020: 8c5b 593e c222 14be 57bc ce3d 3bc4 4fbd
00000030: 4006 7dbd 3499 05be f9c5 503d f387 7f3d
00000040: f0d5 ac3d c600 38be c26d febc bfd0 2d3e
00000050: 9b41 dd3d df87 6fbc 1e3e 8dbd 3d9e cabd
00000060: d2da 80bd 8a77 963d b580 3e3e 81a1 123d
00000070: 0483 f2bc 01da f33d befa f6bd 8134 e73d
00000080: a264 2abe 179d 0abe 2e7b c4bc efb2 693d
00000090: 18aa 173d 0008 3c3e 609e 34be cf5a b83d
000000a0: e82f 15be 33e8 523d e4b2 a43d 3193 e43d
000000b0: 6788 9dbd 060a 03bd 6935 d03d a1a0 0c3d
000000c0: 13cc e1bd e7f8 183e 8d9b debc 459a 44bb
000000d0: d588 6a3d 8b49 243e 1906 0dbe bbe3 06be
000000e0: 68ee fc3d 7ddc 563b a220 cc3d 4695 17bd
000000f0: 004e 7b3d 4a78 f03d e23a 2b3e 63f5 9d3d
00000100: f082 b63c 15ad af3d c2d8 bd3c f2d7 f5bd
00000110: 698a 6d3d 380d 1e3d c805 c03d f8a3 91bd
00000120: e25f d43c 6ee9 1dbe f7d1 97bd b6d6 bebd
00000130: d89d 02be 5610 9fbd 6b28 b03d 97e8 b53d
00000140: 3495 e03d 6230 703d 3857 52bd eb76 783d
00000150: 02e1 fcbc c397 50be 0e53 7d3c 6ce8 1d3e
00000160: a006 cd3d 3529 aa3d 0d75 3abd bde2 bb3d
00000170: 1a5f 1d3e a91a 983d d45e 083e 4c22 273c
00000180: 0662 aa3d eb7c 2cbd 06ac b1bd 21d1 a73d
00000190: 8b0b f03d 634c debd 0ea8 94bc 158c 323d
000001a0: f6e2 4bbd 9379 333e 2e55 67bc 7233 e7bd
000001b0: b9ae 0a3e ccb2 2a3e cd4a b4bc 8f16 e13c
000001c0: 1f7a 3d3e 8cf4 643d e2c4 16bd 8a43 e53d
000001d0: b163 0f3e 54fc dbbc 2f50 cdbd 2988 09be
-0.06438506 0.10039006 -0.060903396 -0.14525779 -0.11275672 0.048524626 0.11479726 -0.14390898
0.21226329 -0.14466384 0.10094517 -0.05072425 -0.06177354 -0.13046724 0.05097005 0.06238551
0.08439243 -0.17969045 -0.031058196 0.16974162 0.10803529 -0.014619797 -0.068966135 -0.09893463
-0.06291737 0.07347019 0.18603785 0.035798553 -0.029603489 0.11906815 -0.12059544 0.11289311
-0.16639951 -0.13536488 -0.023984518 0.05705541 0.03702745 0.18362427 -0.1763854 0.09001695
-0.14569056 0.051490974 0.08041933 0.11160887 -0.07692032 -0.03199198 0.10166437 0.034332875
-0.11025252 0.14938699 -0.027173782 -0.0029999178 0.0572594 0.1604368 -0.13771857 -0.1317281
0.1235016 0.003278523 0.09967162 -0.037007593 0.061353683 0.11741693 0.16721681 0.077128194
0.022279233 0.08577935 0.023174647 -0.12004079 0.057993326 0.038586825 0.09376103 -0.07111353
0.025924627 -0.15421078 -0.074130945 -0.093182966 -0.12755525 -0.07766788 0.08601459 0.088822536
0.10965958 0.05863989 -0.05135271 0.060660284 -0.03086901 -0.20370393 0.015461696 0.15420693
0.10011029 0.08308641 -0.045521785 0.09174106 0.1536831 0.0742696 0.13317424 0.010201048
0.08319478 -0.04211132 -0.08675389 0.08194185 0.11720952 -0.10854413 -0.018146541 0.043590624
-0.049776994 0.17526846 -0.0141194295 -0.11289109 0.13543214 0.16669768 -0.022008324 0.027476577
0.18503617 0.05589728 -0.036808856 0.11194523 0.14002873 -0.026853718 -0.100250594 -0.13430847

fc2.weight f4 [84, 120]
00000000: 66ca c2bd e23f a0bd 9f8a 0fbd b786 34bd
00000010: 7157 cb3d dae6 3c3d c8d5 3cbc b4e9 86bd
00000020: bbf2 ac3d 0314 b63c 83a1 2b3d 68ba b63c
00000030: ccbe a03d 172d 34be 3490 f23d a955 933d
00000040: 9ec7 ec3d 4f09 c33d 5df6 20bd f17b c8bd
00000050: baa0 32bd 7afc e13d 0e97 f5bd f5a7 723c
00000060: 356a 31bd 4f91 fbbc c8a9 19be b28c 34bd
00000070: 6707 d4bd a4f6 e7bd 016c 25bd df70 4d3d
00000080: 0e85 b73d 8d14 353e b15b 213d 7bfc 76be
00000090: 7ad8 0abe 370a fcbc 18c9 a1bc e3f2 78bd
000000a0: dac9 183c b259 873d ef0a 5c3d e76f b2bc
000000b0: ef06 15bd 4b51 ce3d 0183 d3bd 89e4 a03d
000000c0: ec4f 2d3d 8a03 bebd c6fd 88bc 60cc 39be
000000d0: 9974 443d bc68 f7bc 94a5 ebbc 38a6 29bd
000000e0: 0e35 03be b1a2 af3d 6bc9 013e 4ffd 29bd
000000f0: 2e1d 6fbc cb20 f5bc 9359 313d 9717 f4bb
00000100: 06e6 d7bd 8f0b b23d 4775 9abc 64d7 b9ba
00000110: ed2d 883d bd7e e23d d7c2 4dbe 79d8 2cbd
00000120: 4bd8 a2bd 45a3 ddbd 8199 5abd 1929 ae3d
00000130: ebc2 c03b 9707 4b3d fbef e63d 04ba 02bc
00000140: 3721 06be 46ef e7bd ec4d 0dbc 6044 a5bc
00000150: 4951 80bc 9950 af3c 7a07 84bd 7e82 1dbe
00000160: 94d2 33bd d469 e4bd e82d 543d f1fc 453b
00000170: 875d 8b3d 9e44 7c3d 11e5 dabd a0f2 f33d
00000180: 8380 563d 59df 183e c71a 8abb b59c c33d
00000190: edb5 98bc e8c9 11be 74d0 06bd 21a6 6b39
000001a0: dc2f 80bd 51a8 c5bd 1201 f63d 5cba 28bd
000001b0: 2fac adbc 05c9 6f3d b324 723c a29d bd3d
000001c0: e059 a2bd df6a 6eba 2df4 cc3b 915f 46bd
000001d0: 7e55 883d 6cfb e03c 981f 52bd 4516 943c
000001e0: 3f26 3bbe 697c 233c 325b fa3d 36f5 1e3c
000001f0: a1b2 aa3d 4d18 b33d 0710 3fbd 3b97 18bd
00000200: 74cd 9a3c 6206 ac3d c757 ac3d e949 a0bd
00000210: 0fdd 823c 7d36 82bd 754e 233c 465d d3bd
00000220: a725 e43d df71 b0bd 9904 093e 0208 ebbd
00000230: 4a14 a9bd 14d0 2d3d 9151 1bbe ef2a 2b3d
00000240: 4ac5 113e bef9 49be 2ad2 003e 16ae 043e
00000250: b3be 813d 97f9 d8bd 3050 9abd eb9c 54bd
00000260: c0d3 ba3d 6e6c aa3d 15ed ec3c d64c 34be
00000270: 1eea 8dbc 1010 843d 2cef 1f3e cca9 c7bd
00000280: 53de e8bd 9d76 ccbd 5a62 523d aa7e c0bd
00000290: 23bc 26bd a578 a03b 3f0b 83bd 98b5 1ebd
000002a0: b10a 523e 9c49 e9bd 4747 96bd a03c e3bd
000002b0: 4c67 893d 5a58 c8ba d0b4 f5ba 9b3a 04be
000002c0: ca50 ffbd b93c 33bd f45a 6c3c cffd 1dbd
000002d0: 4b20 d8bd b0d9 89bd db45 0cbd d11f 29bd
000002e0: e88a 4dbc 090d c03d e786 0e3c 5a75 7d3d
000002f0: ff39 2c3e a250 063e dd04 35bd c715 aebd
00000300: afb0 bf3d b62a d73d 7cf6 b53c 2062 43bd
00000310: a127 8fbd 6f6b f23d dc18 023e 496d f53d
00000320: c4c2 eabd 10bf aebd 4b73 fabd e2c2 703c
00000330: cf14 363e 5575 103e fc9a 8f3d 3895 41bc
00000340: 7427 17be ac20 13bd a94d d63d 1b06 f83d
00000350: a937 d23d b788 533d dabd d13d 27ef fa3d
00000360: 78ea 20bc 345f af3d e8b9 bbb9 a47a 543d
00000370: f256 563d 45d1 05be b46e 5e3d 4f80 b43d
00000380: 30db b13d a1b3 ab3b f6b6 a83d fe68 d63d
00000390: 31ba 2c3e f041 7a3c e04b 43bd 347d fabc
000003a0: be15 523d 2346 963d 3945 3cbd 47d1 a03d
000003b0: eaa1 b6bc ee4b 003e fe01 3c3d 706b 88bd
000003c0: abe2 b63c da44 64bb b773 f8bd bc48 d0ba
000003d0: f29e 103d a973 0b3d a668 02bd a31f 933d
000003e0: 3e92 8fbd 2214 a3bc f319 853d df96 233d
000003f0: 2fc0 503d 330d 2b3d 1f80 ed3d 5061 1abc
-0.09511261 -0.07824685 -0.03504431 -0.044073787 0.099287875 0.046118595 -0.011525579 -0.06587544
0.08444735 0.02222634 0.041902076 0.022305682 0.078488916 -0.17595325 0.11843911 0.07194073
0.115615115 0.0952326 -0.03929745 -0.09789265 -0.043610312 0.11034484 -0.11991702 0.014810552
-0.043314178 -0.030708937 -0.15006173 -0.04407949 -0.103529744 -0.1132634 -0.040386204 0.05015647
0.08960925 0.17683621 0.039394084 -0.24119751 -0.13559142 -0.03076659 -0.01974921 -0.06077851
0.009325469 0.06608905 0.053721365 -0.021781875 -0.036383566 0.10074099 -0.103277214 0.078560896
0.042312548 -0.09278019 -0.016722571 -0.18144369 0.04796276 -0.030201308 -0.028765477 -0.041418284
-0.12813208 0.08575953 0.12674491 -0.04150134 -0.014594359 -0.029922863 0.043298315 -0.007449101
-0.1054192 0.08693611 -0.01885475 -0.0014178571 0.06649385 0.1105933 -0.20093857 -0.042198632
-0.07951411 -0.10822157 -0.05336905 0.085039325 0.005882611 0.049567785 0.112762414 -0.00797892
-0.13098608 -0.11324935 -0.008624535 -0.020174205 -0.01566376 0.021400737 -0.064467385 -0.1538181
-0.043901995 -0.111529976 0.051801592 0.003021058 0.06804948 0.061588876 -0.10688222 0.119115114
0.052368652 0.1492895 -0.004214618 0.09551374 -0.018641436 -0.14237177 -0.03291364 0.00022473234
-0.062591285 -0.096512444 0.12011923 -0.04119335 -0.021200268 0.058541317 0.014779258 0.09258582
-0.079272985 -0.00090949045 0.006254694 -0.048430983 0.06656931 0.027463637 -0.05129966 0.018077025
-0.18276308 0.009978392 0.122244254 0.0097020175 0.08334852 0.087448694 -0.046646144 -0.0372536
0.018896796 0.08399655 0.0841518 -0.07826597 0.01597455 -0.06358049 0.009967436 -0.10320525
0.11139994 -0.08615469 0.1338066 -0.11476137 -0.08255823 0.042434767 -0.15167834 0.04178899
0.14235416 -0.19724175 0.12580171 0.12957034 0.06335201 -0.105944805 -0.07534826 -0.05190746
0.09122419 0.083214626 0.028921643 -0.17607436 -0.01732355 0.06448376 0.1561858 -0.09749183
-0.1137053 -0.09983561 0.051363327 -0.09399159 -0.040706765 0.0048971944 -0.063986294 -0.0387474
0.20511891 -0.11390993 -0.07337814 -0.11095548 0.067091554 -0.001528512 -0.0018745903 -0.12912981
-0.12466581 -0.04375908 0.014425982 -0.03857213 -0.105530344 -0.06730974 -0.034246307 -0.041290108
-0.012545325 0.09377486 0.008699155 0.061879493 0.16818999 0.13116696 -0.04419409 -0.085002474
0.093598716 0.10506193 0.02221226 -0.047701 -0.069899805 0.118368976 0.12704796 0.11983735
-0.1146293 -0.08532536 -0.12229022 0.014694901 0.17781375 0.14107259 0.07011983 -0.011815362
-0.14761144 -0.03591983 0.10464031 0.121105395 0.102645226 0.051644053 0.102412894 0.12252646
-0.009821527 0.085630804 -0.0003580593 0.05187477 0.05232901 -0.13068111 0.054304793 0.088135354
0.08684385 0.0052399193 0.08238022 0.104692444 0.16867901 0.01527451 -0.047679782 -0.03057728
0.051290266 0.07337596 -0.045964453 0.078524165 -0.022294004 0.12528965 0.045900337 -0.06661117
0.02232488 -0.0034831078 -0.12131446 -0.0015890817 0.035307832 0.03404585 -0.03183808 0.071837686
-0.07010315 -0.019907061 0.0649909 0.039938804 0.05096453 0.041760635 0.11596703 -0.009422615

fc2.bias f4 [84]
00000000: 0bde 03bd 6c73 35bd b387 6dbd 73b4 c93d
00000010: 282a 353b c96b 703d 0aec dbbc 9c6a 883b
00000020: f0bb 103d d935 84bd ce55 88bd 3cc5 873d
00000030: 3542 02bd f49b 87bd b600 56bd aabe 563d
00000040: a1ae 583d 0926 713d 89fe 1b3c 15ca b13c
00000050: 40dd 97bb 518a 5ebd 0ed8 cfbd 4ea5 853d
00000060: cc9a 63bd a890 8fbd b9ce 8a3b b8d4 823c
00000070: 402c a43d a544 42bd 48d0 56bd c224 99bc
00000080: ae1a be3c 778b 693d ac32 86bd d497 9abd
00000090: 8758 7b3d 1893 36bd 9cb6 3d3d fbba 1cbb
000000a0: e53c 1bbd fff0 363d 41a2 b5bd 023d 833c
000000b0: 31d2 a33c e2cf 153d 2310 93bb fba2 d7bd
000000c0: a7e2 05bd 7285 923d 19a4 66bb 4e19 663d
000000d0: 2c09 9fbd f4c1 53bd ab8e a33c ee87 c5bc
000000e0: 4f66 95bc 1ce6 113c 51e0 8cbc 50a5 65bd
000000f0: cb1b 383c 4aaf ac3c 3370 833d 8a0d 903d
00000100: 86e7 21bd 89b4 563d 994d 063d b3d6 653d
00000110: 0f33 61bd 6297 35bd 670d dbbc be50 733d
00000120: fc36 0d3d 09a5 283b b56f b03d 8d88 59bc
00000130: 234b 2f3d d3ce b2bc c85c bf3c 7df7 773c
00000140: 113e 593d 1503 9abd 4f8d ce3c d584 36bd
-0.03219418 -0.044299528 -0.05799074 0.09848871 0.0027643535 0.058696542 -0.02684595 0.0041630995
0.03533548 -0.06455583 -0.06656991 0.06629416 -0.03180142 -0.066215426 -0.05224677 0.052427925
0.052900914 0.058874164 0.009521135 0.021702806 -0.0046345294 -0.054331128 -0.10148631 0.0652567
-0.055567548 -0.07010013 0.004236069 0.015970573 0.080162525 -0.047428746 -0.052444726 -0.018694285
0.023206081 0.05701777 -0.06552634 -0.0754849 0.061363723 -0.044573873 0.046316728 -0.002391516
-0.03789987 0.044663426 -0.08868838 0.016020302 0.019997688 0.036575206 -0.0044880076 -0.10529133
-0.032686856 0.07154359 -0.0035193025 0.056176476 -0.07765421 -0.05169864 0.01996549 -0.024112668
-0.018237261 0.00890496 -0.017196806 -0.056065857 0.011237095 0.021079678 0.06417885 0.07033832
-0.03952744 0.052418265 0.032788847 0.056112956 -0.054980334 -0.044333823 -0.02673979 0.059403174
0.034476265 0.0025733134 0.086150564 -0.013277185 0.042796265 -0.021827137 0.023359671 0.015134689
0.053037707 -0.07520119 0.025213866 -0.044560272

fc3.weight f4 [8, 84]
00000000: 141e bebd 7337 1ebe 6ec1 f8bc 1078 1f3e
00000010: fc1c e43d 79b8 c1bd 2c31 303e 3bfb 953d
00000020: 3b97 d93c c142 28be 1871 b63d ccbd a33d
00000030: 71d1 2a3e 39d6 bc3d 45c7 c63d dcf8 c1bd
00000040: debf 0bbe eb0b ce3c 817b 823d e764 b3bd
00000050: 39d1 16bd a100 a43d ae5d bebd 3d1b 1bbd
00000060: c957 903d ba5d eb3d 60a4 933a 4747 16bc
00000070: c75a eb3d 99af dfbd b115 373e c18b 12be
00000080: 8508 07be 97ac 0abd 898e fbbd b368 da3d
00000090: eef1 15bb dea1 833d 5e55 193e c72a cebc
000000a0: 4cd0 2a3d 7621 0d3e 87a4 20be dd04 57bc
000000b0: 38f2 4cbd b6fd 0abe 4abf ab3d 7a5a 053e
000000c0: 2037 bd3c 359e 0f3e b672 de3d d8a1 e03d
000000d0: 7202 06be b119 cebd 7149 24bd f547 b9bc
000000e0: 0e12 abbd adc1 18be 74af 3d3e ecb7 b0bd
000000f0: 9554 33bd 8f90 813d 70fd 9b3c d726 323e
00000100: ebfb df3d a06f 093e a0d0 ef3d 86a3 603d
00000110: 7285 16be 0ba7 123e 396c d4bd 3f32 0ebe
00000120: d601 693d 4eca b73d 7590 22bd 8119 863d
00000130: 428c 8b3b e53a eebd 5c80 1c3e 86ba 75bd
00000140: 45b7 0bbe 500c e73c 1db3 22be c713 b2bd
00000150: 0fd0 123e 0ac9 283e 86b0 0bbe 8597 133e
00000160: 05b0 ac3d d341 6ebd 4209 c13d 80a6 213c
00000170: fcc5 21bc b600 04bd 6636 0c3d 4a1a b53d
00000180: c13d 0ebd 87cc 363e f6cc 1abe be1a 4d3d
00000190: 26ce d4bd ddd0 db3d c5b2 c5bd 9086 bdbd
000001a0: ed1b fe3c 8ed5 9dbd 2a09 f2bd 2d90 6fbd
000001b0: 76b8 023d c81d 27be b2ba 143e 6909 823d
000001c0: 2833 3c3e 1646 383d 3a1d 8c3b 7062 603d
000001d0: e9de c73c caf1 a93d b2d2 803c a444 eb3d
000001e0: daff f33d c8ec 4d3e e18d ce3d a077 36be
000001f0: b146 93bd efba 4bbd 698c 1e3c 1771 e7bd
00000200: 3f56 953b 5792 853d 999b c0bd da0b 363d
00000210: 5d52 d1bd 0130 413d 86e7 1f3e 4707 e03d
00000220: a96d 42bd 46bf febd 62d0 1b3e e5fe 08bb
00000230: 220f da3b 1055 543d 987e b53d e25a 363e
00000240: d0d2 d1bd 1ccf ddbc 6c59 5abd ea4d 473d
00000250: 9e26 adbc 0d01 f1bd 9138 0bbe 5ced 4e3e
00000260: cca6 2e3c 362f 5dbd 74c4 e73d 7b09 ccbc
00000270: 45a6 063e 0eeb 3d3d 0039 483d 738e 07be
00000280: fa90 e7bd 4ab1 57bd 6a26 973d a7d6 05be
00000290: f5df 89bd 62e0 88bc ca68 353d 21a9 963c
000002a0: bd98 ebbd 85f4 0fbd 2541 38bd 4aa6 3cbe
000002b0: add8 69bd 3e87 8abd 1f18 55bd 4162 1cbe
000002c0: 3e64 023e 42db 103d 7d0f 7bbc 8d0b d3bd
000002d0: ee4d 9f3c d303 8cbd df25 fabd 49e1 17bd
000002e0: eabe 8b3d 7b11 37bd 46af 2abe 1aa9 22bd
000002f0: 1e98 6dbd 8912 193d 6b4d 0c3d e5e9 97bc
00000300: 4036 fdbd 1ef0 1d3d 99a9 e53d 1fe8 393d
00000310: ad3a cfbd 27c5 a73d e93c f2bd fc3b ec3d
00000320: 55ef 3fbd 47ad 1fbe 7990 f93d b4ff 10bd
00000330: 1558 0cbe 58b2 30be 1d85 b5bd 2f3b 31bc
00000340: 7810 15be acb6 163e 2130 883d c1ec d6bd
00000350: 640e 1bbe 0164 b3bd 0d53 c43b 5033 b33d
00000360: d645 61bd c271 283d 07e4 00bd 6fcc d3bc
00000370: eb20 133e 6f74 9a3d 56a5 f53d 5240 6d3d
00000380: 000a 1b3d c2c1 143d 42c5 17bd 5db1 6a3d
00000390: 3cc9 cc3d 5f94 a53d 59a4 c1bd 7946 abbd
000003a0: 04b7 2dbe ca90 8c3d 1676 203d 189f d0bd
000003b0: fa20 e6bd 66ef 19bb b262 f9bd f708 283d
000003c0: 386f c3bc 849d 95bb 3213 a13c 0170 c73c
000003d0: 40a2 15be c76d b13d 8ea7 e53d 0dfe 183e
000003e0: fbd4 153d 0032 02be df29 21bd 9edd 833d
000003f0: 48fb 753d 525f 963d f475 03bd 4506 d9bd
-0.09283081 -0.1545084 -0.030365672 0.15573144 0.11138341 -0.094590135 0.17206258 0.07323309
0.02656137 -0.16431715 0.0890829 0.07995185 0.16681458 0.09220547 0.097059764 -0.09471294
-0.1364741 0.025152167 0.06371213 -0.0875948 -0.036820624 0.080079325 -0.09295212 -0.037867773
0.07047994 0.11492486 0.0011264198 -0.009172267 0.11491924 -0.109221645 0.17879368 -0.14311124
-0.13186844 -0.033856 -0.12283046 0.10664501 -0.0022879797 0.06427358 0.14973971 -0.025166882
0.041702554 0.13782296 -0.15687762 -0.013123718 -0.050035685 -0.13573346 0.08386095 0.13022795
0.023097575 0.14025195 0.10861723 0.10968369 -0.1308687 -0.10063494 -0.0401091 -0.02261732
-0.08353053 -0.14917631 0.18523961 -0.0862883 -0.043781836 0.063264005 0.019041747 0.17397629
0.109367214 0.13421488 0.11709714 0.054843448 -0.14699343 0.14321534 -0.10372204 -0.13886355
0.056886517 0.089741334 -0.039688546 0.06547833 0.0042586634 -0.11632327 0.1528334 -0.059992336
-0.1364413 0.028204113 -0.15888639 -0.086951785 0.1433718 0.1648294 -0.13641557 0.14413269
0.084320106 -0.058168244 0.09425594 0.009866357 -0.009873863 -0.03222724 0.034231566 0.08842905
-0.034726862 0.17851458 -0.15117249 0.05007433 -0.10390882 0.10733197 -0.09653238 -0.092541814
0.031019175 -0.07706748 -0.11818154 -0.058487106 0.031914197 -0.16319954 0.14524344 0.06349451
0.1837889 0.044988714 0.004275945 0.054781377 0.024398284 0.08298071 0.015725467 0.114877015
0.11914034 0.20109856 0.10085655 -0.17819071 -0.07191218 -0.04973882 0.009677031 -0.11300867
0.0045574005 0.06522053 -0.09404678 0.044444896 -0.10220788 0.04716492 0.15615663 0.10938888
-0.04746786 -0.12438826 0.1521621 -0.0020903882 0.006654636 0.051838934 0.088620365 0.17808107
-0.102452874 -0.027076297 -0.053307936 0.04865829 -0.021136578 -0.117677785 -0.13595797 0.20207733
0.010659885 -0.054000102 0.11316767 -0.024906864 0.13149364 0.046366744 0.048882484 -0.13237934
-0.11306949 -0.05265931 0.07380374 -0.13070165 -0.067321695 -0.016708557 0.044289388 0.018391194
-0.11503742 -0.0351453 -0.044984 -0.18422809 -0.057091404 -0.06764077 -0.052024957 -0.15271856
0.12733552 0.03536535 -0.015323517 -0.103049375 0.01944634 -0.06836667 -0.122142546 -0.037080083
0.06823523 -0.044694405 -0.16668424 -0.03971205 -0.0580064 0.037371192 0.03425352 -0.018544147
-0.12363863 0.03855907 0.11213989 0.045387384 -0.101186134 0.08191901 -0.11828024 0.115348786
-0.046859104 -0.15593444 0.12185759 -0.035400108 -0.13705476 -0.17255533 -0.0886328 -0.010817333
-0.14557064 0.14718121 0.06649805 -0.10494376 -0.15142208 -0.087593086 0.0059913457 0.087500215
-0.05499824 0.041124113 -0.031467464 -0.025854317 0.14368026 0.07541739 0.11994426 0.05792267
0.037851334 0.036317594 -0.037053354 0.057298053 0.0999932 0.0808494 -0.09455175 -0.08363051
-0.16964346 0.06863554 0.039175116 -0.10186595 -0.112367585 -0.002348864 -0.12177028 0.041024175
-0.023856744 -0.0045658965 0.019662473 0.0243454 -0.14612675 0.086635165 0.11213599 0.14940663
0.036580067 -0.12714386 -0.039346572 0.064387545 0.060054094 0.073424 -0.03209491 -0.10596899

fc3.bias f4 [8]
00000000: 41a0 5b3d 3855 f4bc 4d4d 8bbc 056d 8a3d
00000010: 1549 d7bd dc25 90bd b629 a33c cb2a 773d
0.053619627 -0.029825792 -0.017004633 0.06759075 -0.10511986 -0.07038471 0.01991735 0.060343545

fc1.weight f4 [120, 21]
00000000: 272a a1bd c651 13bd aa55 f9bd 940b f73d
00000010: 7f76 f6bd b582 7f3e cd31 463e 2adf 18be
00000020: be12 893e a779 1bbd 78b2 38bd c315 003e
00000030: 721c a6be 3b4f 0d3e 703a 253e 7ed6 c5bd
00000040: 572f 563e e487 a63c 698a 993e b244 b9ba
00000050: bede e1bd cbb0 07be 1ceb 0a3e 7839 1dbe
00000060: f821 4bbe b4ae 153c 216c 243e 02c3 e33d
00000070: ec49 a9bb bd7d 2f3e 7be7 0abe fbaf cc3d
00000080: 29d2 21be e961 bc3d 15e7 33be 212c 12be
00000090: d9dc ac3d ba0a 51be 462f cebd edf6 0abe
000000a0: c171 19be 2abf 543e dba0 b73e 11f8 95bd
000000b0: e5f9 893e b926 5dbe c231 2ebe 8075 fbbd
000000c0: 9b0a a93b 41c9 443e 3576 6d3e 8f25 8f3c
000000d0: 497c 18be a980 b23d afca 703e d702 db3d
000000e0: a3e2 57be 53c0 78bc a612 033e 9d1f 6abe
000000f0: 331d 29be 9108 063e 48b6 1abe d7c6 a5be
00000100: 7f36 11bf 3939 92be 27b3 13bd 3802 10be
00000110: 5822 453e 6d5c 44be d4ba 0bbd d340 2b3e
00000120: c99a 833e 2d2b eebd c0d5 db3c 2282 8a3d
00000130: 23f5 9bbd 2394 323e 66e7 433e 4641 523e
00000140: 8ff1 8c3a 3329 733e b295 0fbc 4515 fb3a
00000150: 02f0 30be eafc d73b fcad 46be 4741 c13c
00000160: 6bbe 48bd 1a9e 903b a44a 09be 31a8 06be
00000170: 683d 5a3c f122 873d 5e0f 523e aef3 59be
00000180: 42a8 81bd 978d 813b a3f2 20bd b1c0 42bd
00000190: a9c6 a3be f1fb 18bd 55ca 233e 4b74 ea3d
000001a0: 9bc9 0a3d 62a6 abbd ac8a ffbd cbc8 4abe
000001b0: 143c 2bbe ccfd 6dbd 77c9 02be 4015 f0bd
000001c0: 24ef 74be 04aa 823d 4bd7 313e 5e73 d3bd
000001d0: 4b1f c73e 3319 cebd 4d58 babd 4ec1 b63d
000001e0: 1bbe b9bd c88c 003e 1be4 d03d 3d36 78bd
000001f0: 1acd 3c3c 381c 11be 233a 20be 13d0 febc
00000200: 2c00 24be 4fee 3f3e a31b 0fbd c79a 533e
00000210: cb89 5d3e dfca a53d 0785 0c3e 3cbf 853e
00000220: fbff 2e3e b2dd e63d c2d6 013d e206 8abc
00000230: e439 ec3d c540 823e b6cd 723e f964 18be
00000240: f305 9b3e da38 e03d 10b0 d93d 93b3 8ebd
00000250: 98b0 dc3c 4329 463e ccdf cdbd 9e49 4dbb
00000260: d118 47be 1e8d 8dbe 3966 b8bd d478 56be
00000270: 7b49 34be 2586 e7bd 1777 143d 3aeb abbd
00000280: 57ab 563c 178a 37be 44ef babc 1fc5 30be
00000290: efdb 7bbe 7ed8 e2bd 25aa 35bc 4642 f7bd
000002a0: b693 9d3e cf80 29be 256b efbd a3c5 27bd
000002b0: 05c8 b23d 6f73 84be 955f 293d 09af 133e
000002c0: fbc5 df3c adf5 4dbd 7c1a c43d 42d7 8f3d
000002d0: 1c9b a43e 49b6 503e 8512 97be 4a7b 4cbe
000002e0: 6bdf 3fbe 76ec 5abe 68b3 9abe cf47 e3bd
000002f0: 5aaf 463e 0705 61bc 4f96 063d 9a73 73be
00000300: 0a64 5ebd 89a1 71be 1cc8 053e 268b d63c
00000310: 1ed6 5abe fb14 72bc cb56 3fbe 3cc9 11be
00000320: a512 f03c d767 2b3e d398 51be 0b8d 0cbe
00000330: 0219 f7bd 2b31 eabb 91d8 3f3c f5aa 92be
00000340: cdcb 7abd 2cfb d83d 9ae1 883e 2964 a5bd
00000350: 7ba6 ffbd 8259 30be 8c1b f3bd f3fa 6cbe
00000360: ac87 5b3d 55a4 88bd c151 56be 740f 12be
00000370: b26d 573e 0941 3a3b 71bb 98bd d26d 37be
00000380: 171d 453c 0e5b c6bd 3514 1ebe 3db0 093e
00000390: e633 8f3d 808e 21be cd00 b93d f6ee 0abf
000003a0: 35c0 c5be f748 a2bd 6760 39bd 6947 093e
000003b0: ca6b 36be 7f1b babe e731 853e ce57 6d3d
000003c0: eaf2 703e 6901 93be 6d55 d5bd 7e61 5abe
000003d0: de36 b33c 8883 c93d 8452 97bd 5fa9 533e
000003e0: 5e94 f63d 801b acbc c334 0f3e c3e8 ecbd
000003f0: b1ce b93d 12a0 ea3d 767a 59be a4b8 1e3e
-0.07869368 -0.035966657 -0.12174542 0.12062755 -0.1203432 0.24952205 0.19354935 -0.1492888
0.26772112 -0.037957814 -0.045092076 0.12508301 -0.32443577 0.13799755 0.16135573 -0.09660052
0.20916496 0.02032847 0.2998841 -0.0014134853 -0.11028813 -0.13251035 0.1356625 -0.15353954
-0.19837177 0.009135891 0.16056873 0.11121179 -0.005166283 0.17137809 -0.13564865 0.09994503
-0.15802826 0.091983624 -0.1756862 -0.14274646 0.08440561 -0.20414248 -0.100676104 -0.13570757
-0.149848 0.20776048 0.3586491 -0.073227055 0.26948467 -0.21596803 -0.17011169 -0.12278271
0.005158735 0.19217397 0.23189624 0.017473964 -0.14891161 0.08715946 0.23514818 0.10693901
-0.21082549 -0.015182572 0.12800083 -0.22863622 -0.16515045 0.13089205 -0.15108597 -0.32378265
-0.5672378 -0.28559282 -0.036059525 -0.14063346 0.19251382 -0.19175883 -0.03411372 0.16723947
0.2570403 -0.11629329 0.026835322 0.06763102 -0.076151155 0.17439322 0.1913124 0.20532712
0.0010753142 0.23746185 -0.0087637175 0.0019156119 -0.17279056 0.006591429 -0.19402307 0.023590697
-0.04900972 0.0044133784 -0.1340738 -0.13150097 0.013320304 0.065984614 0.20513675 -0.21284363
-0.06330921 0.0039536464 -0.039293896 -0.047547046 -0.31987503 -0.037349645 0.15995152 0.114479624
0.033883672 -0.083813444 -0.124776214 -0.19803159 -0.16722137 -0.058103368 -0.12772165 -0.11722803
-0.2391935 0.06380084 0.17367284 -0.10324739 0.38891062 -0.100634 -0.09098873 0.08923589
-0.09069463 0.12553704 0.10199758 -0.0605986 0.011523509 -0.14170921 -0.15647177 -0.031105077
-0.1601569 0.18743251 -0.034938466 0.20664512 0.21634595 0.08095335 0.13722621 0.26122463
0.17089836 0.11272754 0.03169895 -0.016848985 0.11534479 0.2544004 0.23711285 -0.14882268
0.30277976 0.109483436 0.106292844 -0.06967845 0.026939675 0.19351678 -0.100524515 -0.0031324397
-0.1944306 -0.27646726 -0.090038724 -0.2094453 -0.17606156 -0.11304883 0.036246385 -0.08394475
0.013102374 -0.17923771 -0.022819169 -0.17262696 -0.24595617 -0.11076449 -0.011087929 -0.120731875
0.30776757 -0.16553043 -0.11690358 -0.040959965 0.08729557 -0.2586932 0.04135092 0.1442224
0.027316084 -0.050283123 0.09575364 0.07023479 0.3214959 0.20382036 -0.29506317 -0.19968906
-0.18737571 -0.21379265 -0.30215 -0.11097681 0.19402829 -0.013734109 0.03285819 -0.23774567
-0.054294623 -0.23596777 0.13064617 0.026189398 -0.21370742 -0.01477551 -0.18685453 -0.14236921
0.029305765 0.1673883 -0.20468454 -0.13725679 -0.12065317 -0.0071469746 0.011709348 -0.28646055
-0.061229516 0.10594782 0.2673462 -0.08075745 -0.124829255 -0.17221645 -0.118704885 -0.23142605
0.053596184 -0.06671969 -0.20929624 -0.14263707 0.21037939 0.0028420112 -0.074576266 -0.17912987
0.012030861 -0.09685336 -0.15437396 0.13446136 0.06992321 -0.15777016 0.09033356 -0.54270875
-0.38623205 -0.07924073 -0.045257952 0.13406147 -0.17814556 -0.36349103 0.26014635 0.057945065
0.23530164 -0.28712013 -0.10416684 -0.21326253 0.021876749 0.09839541 -0.073887855 0.20670079
0.120400175 -0.021009207 0.13984971 -0.11567833 0.090726264 0.11456312 -0.21238121 0.15500122

fc1.bias f4 [120]
00000000: 9d28 96be 4ede 7a3e d046 923e 0a18 223e
00000010: 81ff b2bd 742f 6fbe 0dc8 af3d dd46 4c3e
00000020: 1587 7e3d 847d d03d b7ac 79bd 97ca 93be
00000030: a444 993d 2883 8bbe f3e6 133e 7c2a 843c
00000040: 9936 3b3e 731e bfbd 6068 d83d 5d4a a83e
00000050: 7849 71be 6aa8 a73e afe1 0dbd 88cb 573e
00000060: fc11 533e 59e4 24be a4df 6fbe 9dc1 523e
00000070: 77bd 673e 13f8 81bd 4b9f 2f3c 490b 953e
00000080: b07e 5bbd c981 8cbe 7765 d0bd 7ad5 4e3a
00000090: aa57 7abc 8503 bbbc 647f 773e efec 98be
000000a0: 6067 783d 9576 fc3d 32f3 543e ff31 6b3e
000000b0: 499a ac3d a8fe 3abd 6743 29be a40b 193e
000000c0: a4ab 593d af39 49bd 348b 4ebd 2046 e63c
000000d0: cf41 a43e eecc 9c3e d635 1b3e 468e 763d
000000e0: 3d81 933e c1d8 873e 8df1 fa3c 3273 b33e
000000f0: 5a24 d83d da4d b13c f19c 1e3b 4560 163e
00000100: 07c4 90bd 0085 bbbd 432a afbd 017e d73b
00000110: bad8 233e 0f26 e83d 1c63 3dbe b9e5 333e
00000120: db67 b33b 5590 ab3e e465 57be db45 543e
00000130: 49ea 73bd f89d 8e3e 7f4c 7cbe 3792 5cbe
00000140: bc85 2e3e 776a 213e db03 87bd dcd4 55bd
00000150: cd6d 5abe 6324 603d da3c b03d 2089 a93e
00000160: e2c2 8e3e 82a2 91be 3ff8 3ebe 911b dcbd
00000170: 9a1f 933d cb73 06be 7e36 acbd 45b3 a53e
00000180: e1ec abbe 5af5 a33e f12e 983c ae9b 31be
00000190: f613 833e a605 adbc 939b 6cbe 7f28 5abd
000001a0: 1188 ac3e da2c ab3e 88b1 6c3e ddb8 a53e
000001b0: a7cd 95be 307d bebc fa83 973e 0306 2fbc
000001c0: f392 a73e d7a8 bbbd cd1b 993d 5a61 9cbe
000001d0: 791e 923e dcac aabb 5dd7 69bd 1e47 8ebe
-0.2932786 0.24498865 0.2856965 0.15829483 -0.0874014 -0.23357946 0.085830785 0.19948907
0.062140543 0.1018019 -0.06095573 -0.288655 0.07483795 -0.27248502 0.14443569 0.01613354
0.18282546 -0.093319796 0.10566783 0.32869235 -0.23563182 0.32745677 -0.034639057 0.21073735
0.20612329 -0.16102733 -0.23425156 0.2058167 0.22630869 -0.063461445 0.010719131 0.29110172
-0.053587615 -0.27442768 -0.10175603 0.0007890087 -0.01527969 -0.022828827 0.2416969 -0.29868266
0.06064546 0.12327305 0.20795897 0.22968291 0.08427865 -0.045653015 -0.16529618 0.14945847
0.053142205 -0.049127277 -0.050425723 0.02810961 0.32081458 0.306251 0.15157256 0.060194276
0.28809538 0.26532558 0.030632759 0.35048825 0.105538085 0.021643568 0.002420243 0.14685161
-0.07068639 -0.09156227 -0.08552983 0.0065763 0.16000643 0.11335384 -0.18494838 0.17568101
0.005475027 0.33508554 -0.21034962 0.20729773 -0.059549604 0.27854896 -0.24638556 -0.21540152
0.17043203 0.1576327 -0.06592532 -0.05220495 -0.21330948 0.0547222 0.086053565 0.3311243
0.2788306 -0.28444296 -0.18649386 -0.107474454 0.07183762 -0.13130109 -0.08408831 0.32363334
-0.33579162 0.32023126 0.01857707 -0.17344543 0.25601166 -0.021120857 -0.23106222 -0.053261276
0.3369756 0.33432657 0.23114598 0.32367602 -0.29258463 -0.023253053 0.29592878 -0.010682586
0.327293 -0.09163063 0.07476006 -0.30543023 0.28538874 -0.0052085947 -0.057090152 -0.27788633
